scenario/mnist_cnn.pth (torch, 90495 bytes, 8 tensors)

conv_layers.0.weight f4 [10, 1, 5, 5]
000000 8a a0 94 3e a1 30 9d 3c 40 76 b0 3e cf c9 93 3e
       0.29028732 0.019188227 0.34465218 0.28864905
000010 a9 89 90 3e 52 22 7d 3e 72 ac 95 3e 26 ed dd 3e
       0.28230026 0.24720123 0.29233128 0.43344992
000020 54 e5 f9 3e 70 9e ab 3e cc d5 25 3e c4 6c 6d bd
       0.48807776 0.33519316 0.16194838 -0.057965055
000030 10 ad 05 3e 71 54 8c 3e b7 58 a9 3e aa af 2d bc
       0.130543 0.27408174 0.33075497 -0.010600964
000040 1b 9c 2a be 40 2c 91 bb 17 b2 5c 3c a9 9f 94 bc
       -0.16661112 -0.004430324 0.013470194 -0.018142538
000050 be 8f 35 be fb 21 48 be d6 f8 96 be ef 5b 7e bc
       -0.17730615 -0.19544213 -0.29486722 -0.015524848
000060 34 f7 0e be 92 ad 81 3e 44 39 50 3d f0 2c 3e 3e
       -0.13961488 0.25327736 0.050835863 0.1857183
000070 d8 4c 48 be c8 84 20 be 0c 3a a7 3d fe 8d 1d 3e
       -0.19560564 -0.15675652 0.081653684 0.15386197
000080 ed 06 38 3e b6 3b 29 be 8c a0 67 be 33 c1 92 3c
       0.17971392 -0.16526684 -0.22619838 0.01791439
000090 0e 78 cb bd 4e c0 20 3e 75 0f 53 be 9c d0 40 bd
       -0.09935008 0.15698358 -0.20611365 -0.047073945
0000a0 37 27 d1 3b 13 ee 7f 3e eb a6 81 bb 28 1a ef 3b
       0.0063828486 0.24993162 -0.0039566658 0.0072968192
0000b0 a5 41 2f be cd 0a c5 bd 39 be 1f bb a9 46 b0 3d
       -0.17114885 -0.09621201 -0.0024374856 0.08607227
0000c0 50 4d 99 3c fa 64 55 be d7 dc 0c be 19 3c c0 3d
       0.018713623 -0.20839301 -0.13756119 0.09386463
0000d0 6b 21 31 3e 06 a9 48 3b 7e 3a fd bd d3 cc 05 be
       0.17297904 0.0030618324 -0.12364672 -0.13066415
0000e0 b3 57 13 3e 43 55 7b 3e 70 cf bf 3d 27 34 2d 3e
       0.14388923 0.24544244 0.093657374 0.16914426
0000f0 d3 96 51 3e e2 6c 9d 3e f2 f9 56 3e 77 d3 bd bd
       0.20467691 0.30747133 0.20993784 -0.09268849
000100 29 6c 2c bd 09 5c 68 bd 6c ca 85 3e 7e fd 2e 3e
       -0.042095337 -0.056728397 0.26130998 0.17088887
000110 6d 00 46 3e 27 d5 bb 3d 45 cb ad 3b c2 d0 bc 3e
       0.193361 0.09171515 0.0053037726 0.3687802
000120 32 7f b6 3e aa df 43 3e 15 23 8c 3e 86 87 03 bd
       0.35643917 0.1912829 0.27370515 -0.032111667
000130 01 cb 48 3e b8 21 18 3e 5a 98 25 be 8d a2 5b be
       0.1960869 0.14856613 -0.16171399 -0.21448727
000140 85 1a 25 3e 7f 71 18 bd 58 16 24 be 7d bd db bd
       0.16123398 -0.037217613 -0.16024148 -0.107295014
000150 bc 0a 1a 3d 45 cd 47 3d e6 cc 1f 3e de 79 25 be
       0.037607893 0.048779745 0.15605506 -0.1615977
000160 01 96 54 be 30 7c ae bd f5 e8 49 3e 43 20 72 3e
       -0.20760347 -0.08519781 0.19717772 0.2364512
000170 b0 51 c3 3d 86 a9 1f 3d f9 b3 11 bd 65 83 52 bd
       0.09537065 0.03898003 -0.035572026 -0.05139484
000180 d0 86 89 3e e0 49 8e bd e3 7c 7d 3e 98 8d db 3d
       0.26860666 -0.06947684 0.24754672 0.10720366
000190 7d d1 c0 3d 61 c6 bd 3d e9 98 b8 3d 61 49 54 3d
       0.09414957 0.092663534 0.0901354 0.051827792
0001a0 77 50 ee bc 3a 20 b9 3d cf 1c cb bd b8 f4 69 3e
       -0.029091103 0.0903935 -0.09917604 0.22847259
0001b0 06 1b 01 be af ee 68 3e 4c a7 d5 3a a3 66 c3 3c
       -0.12607965 0.227473 0.0016300469 0.023852652
0001c0 6d fa c0 bd ce 56 ad 3c 9d a4 30 3e d9 42 93 bd
       -0.09422765 0.021159556 0.17250295 -0.071904846
0001d0 95 3f 62 3c 17 21 e6 bc 30 67 dc bd 79 3c 61 be
       0.013809104 -0.02809195 -0.10761869 -0.21995725
0001e0 96 39 5c 3d 84 54 6b be bf 43 4a be 92 b5 e6 bc
       0.053765856 -0.22981459 -0.19752406 -0.028162751
0001f0 cc ab 56 be 8d a4 c0 3d 37 36 6f 3e 05 81 93 3e
       -0.20963973 0.094063856 0.23360525 0.28809372
000200 2d 50 d4 3d fe bf 80 3e 9e 88 60 bd 7d 25 4e bd
       0.10366855 0.25146478 -0.05481779 -0.05032872
000210 9d 35 60 3e d5 96 4c 3d d5 ae 5c 3d 26 fc 2e be
       0.21895452 0.049948532 0.05387767 -0.17088374
000220 56 bf 44 3c c0 da 4b bd f2 2c 0f bc ec 09 39 3c
       0.012008509 -0.049769163 -0.008738743 0.011293869
000230 4d 20 08 be a5 ad 8d be 7d 78 8b be 92 c5 39 be
       -0.13293572 -0.27671543 -0.27240363 -0.18141773
000240 19 74 6d bd f7 1d bc 3d d8 42 c3 bd 94 be 0c be
       -0.057972047 0.09185403 -0.09534234 -0.13744575
000250 c8 f2 12 be 6c 34 71 be d0 a6 40 be ef f9 1c 3e
       -0.14350426 -0.23555154 -0.18813634 0.15329717
000260 4a f5 e3 bd f2 92 95 3d 54 ca 9a 3e 9c 2d c5 3c
       -0.111307696 0.07303418 0.3023249 0.0240696
000270 42 6e 96 3d c5 f7 b5 3d bd 85 a3 3d e8 a2 0b 3e
       0.07345249 0.08885149 0.07984493 0.13636363
000280 67 b6 7e bd 16 a1 fb ba c5 e1 b5 bd 4a ad 74 3e
       -0.06218567 -0.0019197788 -0.08880953 0.2389423
000290 a4 ca c7 3e 6c a0 31 be ab d9 26 be 31 11 9f bd
       0.3902179 -0.17346352 -0.16293971 -0.07766951
0002a0 6c 58 dd 3b 31 ae 84 3e 5f dd 62 3c c5 ca 42 3d
       0.0067549255 0.25914147 0.013846724 0.047556657
0002b0 05 3b 08 be dd af 80 3e bf d5 71 3e 1b 28 2e 3e
       -0.13303764 0.25134173 0.23616694 0.17007487
0002c0 1d 01 2e 3d 82 b7 04 be 1e 5b 9a 3d 70 26 1d be
       0.04248153 -0.12960628 0.075369105 -0.15346694
0002d0 6d 5f a7 3e bb 4d 78 bc 8b f4 e1 3d 7f 59 04 be
       0.32689992 -0.015155251 0.11032971 -0.12924765
0002e0 38 67 05 be e9 62 56 3e 2f 0a 1f bc 12 b9 65 bc
       -0.13027656 0.20936169 -0.009707018 -0.014021175
0002f0 cc c5 1b bc a6 0c 4f be 8b 0e a2 3e ea 2f 8e 3e
       -0.009507608 -0.20219669 0.3165172 0.2777093
000300 78 e2 8a 3d 49 7b a8 3d ef 6d 48 be 78 b8 a3 3e
       0.06781477 0.0822664 -0.19573186 0.31976676
000310 30 df 0f 3e 9a d6 cd bd cf c9 1a 3e df f7 16 3e
       0.14049983 -0.100506976 0.15116046 0.14742993
000320 72 f8 01 3e 15 0e 00 bd b2 7f 5f 3e 4a 89 34 3e
       0.1269243 -0.03126343 0.21826056 0.17630497
000330 26 19 24 be a5 3c aa 3d 8c ff 3d 3d dd d8 d6 3c
       -0.16025218 0.08312348 0.046386287 0.026226455
000340 84 30 3e 3d b1 df f7 bd fc f9 47 3b 38 da c1 3e
       0.046432987 -0.121032126 0.0030513993 0.378618
000350 89 a7 67 3e 17 ab 13 3e c0 f8 2f 3d e6 1d cc 3e
       0.22622503 0.14420734 0.042961836 0.3986656
000360 4e 55 ee 3e 9e 8f f8 3e 73 42 8a 3e a4 11 92 3e
       0.46549457 0.4854707 0.27003822 0.28529084
000370 90 13 8a 3e 51 cf 8a 3e 80 14 7a 3e 6e 7d 37 3e
       0.2696805 0.27111295 0.24421883 0.17918941
000380 86 d5 02 3e 10 ca e5 3d 3c c9 a1 bd a6 03 be bd
       0.12776765 0.11220181 -0.078997105 -0.0927804
000390 28 a9 16 3d d2 bb 57 3d 6f af 1e bd de c6 0a 3d
       0.036782414 0.052669354 -0.038741525 0.03388106
0003a0 ca 0b 05 3d 99 a6 cb 3d 33 ef d1 3b d6 e6 a9 bd
       0.032481946 0.09943885 0.0064066886 -0.082959816
0003b0 6b 91 c2 bc 25 ec 05 be 51 57 c7 bd e8 eb 88 bd
       -0.023750981 -0.13078363 -0.09733451 -0.066856205
0003c0 b0 c5 f8 3d 6b ca 82 bd 35 61 53 3d 8b 56 85 3d
       0.12147081 -0.063862644 0.051606376 0.065106474
0003d0 75 e3 09 3e 97 2a 06 3e 77 8f f3 bd d9 28 d2 bd
       0.13465674 0.13102184 -0.11892598 -0.10261697
0003e0 d5 23 08 3d 16 ed 32 be
       0.033237297 -0.17473254

conv_layers.0.bias f4 [10]
000000 81 f2 25 3b 66 25 42 3e 22 2e f3 3d 9e ab 41 3e
       0.0025321546 0.18959579 0.118740335 0.18913123
000010 ac 8a 29 3e 81 6f 76 3e ff 3a c1 3d e6 23 12 3e
       0.16556805 0.24065973 0.09435081 0.14271507
000020 db d6 c9 3d 6f 4a 35 be
       0.098554336 -0.17704175

conv_layers.3.weight f4 [20, 10, 5, 5]
000000 d5 19 8c 3c bb 75 98 bb d8 cf a1 3c ae b4 3b 3d
       0.017102161 -0.0046527064 0.019752428 0.045826606
000010 66 1e 67 bd 45 da 2f bd dc 2c 81 3c a4 93 d3 3c
       -0.056425475 -0.042932767 0.01576846 0.025827236
000020 c9 1f 86 3d 0d 86 5d bc 69 21 6e bd 41 ad 43 bc
       0.06549031 -0.01352073 -0.05813733 -0.011943162
000030 5a 54 c8 bc 97 70 4d 3d 91 44 b8 bc 87 6c 3c bd
       -0.024454284 0.050156202 -0.022493633 -0.046001937
000040 5a ac 36 bc ed 9c 33 bd e8 2d 2c bd 48 8e d3 3c
       -0.01114949 -0.043850828 -0.042035967 0.02582468
000050 2b 5a 83 bd a8 a0 de 3c a9 ec 68 3c e1 7f 55 bc
       -0.064136826 0.027176216 0.01421658 -0.013030977
000060 80 f7 93 3c b9 cc 32 3d c0 7d a9 bc 23 f7 28 bd
       0.018062353 0.04365227 -0.020689845 -0.041251313
000070 8d 2f 41 3d f7 c2 1d 3d 7a 1f c2 bc 76 d2 cd 3c
       0.04716449 0.03851601 -0.02369665 0.02512477
000080 60 38 11 3d 7b 7c 17 bc f8 a2 6d 3d 9f 4d c8 bb
       0.035454154 -0.009245987 0.058016747 -0.006112769
000090 bf 94 89 ba 11 2c 62 3d 22 27 38 bd 33 dc b9 bc
       -0.00104966 0.055217806 -0.044959195 -0.022688007
0000a0 ab 2f 22 bd b9 7c 44 3d ca 6f 68 bd 77 3b 49 3d
       -0.03959624 0.047970507 -0.056747235 0.049128976
0000b0 26 db f3 bb 55 73 5e 3c 09 97 89 ba e9 c9 b3 3b
       -0.007441896 0.013577302 -0.0010497282 0.005486716
0000c0 6d 35 c6 3c a5 4e 7b bb cb ae 7f bd 5f 17 bf bc
       0.024195397 -0.0038346436 -0.062422555 -0.023326574
0000d0 99 29 82 bd 78 1d e5 bc 5f 5b 20 3d 51 99 3a bd
       -0.063555904 -0.027968153 0.03914964 -0.04555637
0000e0 57 91 3a 3d b7 da 90 3b ee 40 56 3d 16 14 dd bc
       0.045548763 0.004420604 0.052308016 -0.026987117
0000f0 37 16 05 3c e9 7d 89 bd 75 c9 48 bd ac f5 da 3c
       0.008122972 -0.067134686 -0.04902025 0.026728474
000100 7a 26 07 3d 42 96 89 bd 0e 60 f9 3a 76 6d 6f bd
       0.03299568 -0.067181125 0.0019025819 -0.058454
000110 f7 9c f7 bc f0 20 ba 3c 5f 3c 0a bd fd a4 bc 3b
       -0.030226214 0.022720784 -0.03374898 0.005756973
000120 2d a0 b3 b9 40 b5 28 bd ab 97 d6 bc 8f 97 8b bc
       -0.0003426088 -0.04118848 -0.026195368 -0.017040042
000130 51 5c c7 3c 02 b5 30 3d 8e 80 5a bd 21 10 a4 ba
       0.024336012 0.043141373 -0.053345256 -0.0012517014
000140 82 5c 61 3d 43 45 3a bd dc e9 be bc 94 f1 9f bc
       0.055019863 -0.04547621 -0.023304872 -0.019524373
000150 aa 3e 5b bc a5 20 94 3c 7f 35 62 bd 9b ba c9 bc
       -0.0133816395 0.018081972 -0.0552268 -0.024625113
000160 d9 b8 f9 bc 64 d2 03 3d 93 53 6f 3d 69 bf 75 bd
       -0.03048365 0.032183066 0.058429312 -0.059996996
000170 5d 2f bf 3c 21 e6 b4 bc 32 0c f2 3c c8 13 4c 3d
       0.023338014 -0.02208239 0.02954683 0.049823552
000180 fc 99 90 bb 18 00 18 3d 03 8b 7a bd 08 e5 f0 bb
       -0.0044128876 0.037109464 -0.06116773 -0.0073515214
000190 9c 7a d6 3c dd c5 45 3d 0e 93 74 3c bb 4a f8 3b
       0.026181512 0.0482844 0.014927639 0.007577268
0001a0 cb bf 1f bd 3d a9 1c 3d c6 5f 53 bd f2 38 2b 3c
       -0.039001267 0.038247336 -0.05160501 0.010450589
0001b0 13 25 a2 bc 03 2a 3a bc 1e 45 5d bd 83 10 09 3d
       -0.019793069 -0.011362555 -0.054020993 0.033463012
0001c0 ec a3 61 3c 88 69 17 bd 5d 7c 5a bc 8e be 5c bc
       0.013771992 -0.036965877 -0.013335315 -0.013473166
0001d0 8d 30 62 ba 14 32 11 bc 76 13 ae ba 5c e3 13 3d
       -0.00086284505 -0.008862037 -0.0013280946 0.0361055
0001e0 5a 96 77 3d ec 69 68 bd c9 be 37 3d 21 3d 6f bd
       0.06044612 -0.05674164 0.04485968 -0.058407906
0001f0 a5 bc cc bc 79 c6 0f 3d b2 52 92 bb b2 87 e4 3c
       -0.024992296 0.035101388 -0.0044654245 0.027896736
000200 70 31 50 bd 8b 77 f7 3c 81 35 71 3d f2 89 df 3c
       -0.050828397 0.03020837 0.058888916 0.027287457
000210 45 98 ad 3c 43 f9 ff bb 9b 81 a9 ba 4c c6 b8 3c
       0.021190772 -0.0078116967 -0.0012932302 0.022555493
000220 be c6 93 3c 80 b0 2b bc 46 a2 03 ba 9d 52 34 bd
       0.018039104 -0.010479093 -0.0005021434 -0.0440241
000230 27 7b 05 bd d6 c8 40 bd 5e b8 4e bd 5c 1e 46 3d
       -0.03258815 -0.047066532 -0.050468795 0.048368797
000240 31 65 c2 3b 92 fd 9e bc e0 e8 77 bd 57 eb c4 3c
       0.005932473 -0.019408021 -0.06052482 0.024038
000250 ce 76 2f 3d 26 99 66 3d 25 b7 18 bd 95 9a 05 bd
       0.04283791 0.056298397 -0.037284035 -0.032618124
000260 db 49 30 3d 6f 85 80 3d bc 78 7c 3c 4d 92 10 3d
       0.043039184 0.062754504 0.015409645 0.035295773
000270 8b 7b 13 bd 7c 59 44 bd 00 6a 29 bd e7 66 50 3d
       -0.03600649 -0.0479369 -0.041360855 0.050879385
000280 90 04 38 3d a5 b6 28 bd 47 6c a1 bc b9 8c 89 3a
       0.044926226 -0.04118981 -0.019704951 0.0010494209
000290 b2 25 d8 bc 05 b0 07 bd be 3e 38 3c 2f eb 0a 3d
       -0.026385162 -0.03312685 0.011245428 0.033915695
0002a0 11 d3 a4 3c bd de 93 bc ed 5b 19 bd f2 87 3f 3d
       0.020120176 -0.018050546 -0.037441183 0.046760507
0002b0 61 85 04 bd 23 f7 03 3d 38 73 22 3d 8a 4a 89 3c
       -0.032353763 0.03221811 0.039660662 0.016759176
0002c0 3b 11 7c 3d 9f a6 01 bd 60 93 da 3b 89 f2 27 3d
       0.06153987 -0.031653043 0.0066704005 0.041002784
0002d0 74 cc 18 bd 31 2e 62 bd 17 53 29 3d 81 db c9 3b
       -0.037304357 -0.055219833 0.041339006 0.0061602
0002e0 55 74 12 bd 08 55 83 bd 33 c1 3e 3d 1a 6c 64 bc
       -0.035755474 -0.06412703 0.046570968 -0.013941789
0002f0 5d 3b 95 3c e1 04 e5 bb 23 bb 5b 3d ce 2a 68 3d
       0.018216783 -0.006989107 0.053645264 0.056681447
000300 ee bf 13 bd 34 d2 64 bd ae 68 40 bc ac ff 60 3d
       -0.03607171 -0.055864528 -0.011743708 0.054931328
000310 13 8e 8a bb 69 61 4b bd 8e 40 53 3d 4c 71 32 bd
       -0.0042283623 -0.049653444 0.051575236 -0.04356508
000320 94 16 e0 3c ed ad 34 bd 0b c5 8f bd 1c a7 8a bc
       0.027354516 -0.04411118 -0.07020005 -0.016925387
000330 db 7f 01 3b 87 67 63 bd 40 7c 77 bd fa 49 15 3d
       0.0019760046 -0.055518653 -0.06042123 0.036447503
000340 83 6e 56 3d fb 6c 39 3d cb dd 51 bd 06 eb 9b bc
       0.052351486 0.045269947 -0.05123691 -0.019032966
000350 6f 02 e2 bc 1e 4b cd 39 be 38 72 3d d1 1e 4c bd
       -0.027589051 0.00039156614 0.059136145 -0.049834076
000360 f7 18 32 3d d1 d8 ec ba 9f 0a 29 bd b6 2d 2e 3d
       0.04348084 -0.0018069987 -0.041269895 0.042524062
000370 24 cb 2b bc 0a 03 b6 3c 05 75 86 bd ee 86 68 3d
       -0.010485444 0.022218246 -0.065652885 0.056769304
000380 7a 0c 77 3d e9 93 80 3d f9 d8 2d bd 7e e2 36 b9
       0.060314633 0.062782116 -0.04244325 -0.00017441247
000390 40 ad 0e bd 9d 6a 81 bd ce e0 a5 bc 00 b7 22 3d
       -0.034833193 -0.06319163 -0.020248797 0.039725304
0003a0 62 ae f7 ba 01 ab 1b bd 22 c8 bf bb 18 1f 24 bd
       -0.0018896575 -0.03800488 -0.005852715 -0.040068716
0003b0 0f bc 67 bd 17 e2 38 bd 78 af 35 bd be c3 f3 bc
       -0.05657583 -0.04513749 -0.044356793 -0.029756423
0003c0 0a fc 74 bc f4 98 c4 bc 38 24 77 3d e9 5d 15 3c
       -0.014952669 -0.023998715 0.060337275 0.009116628
0003d0 78 0a 3b 3d 7e 80 23 3d de 88 b9 3c 4a 66 9a 3b
       0.04566428 0.03991746 0.022648271 0.004711901
0003e0 c5 5f 47 bd 82 d2 b1 3c b4 27 af ba 42 2d d8 bd
       -0.048675317 0.021706823 -0.0013363273 -0.10555507
0003f0 72 33 0e be 2e 46 1e be 56 d9 aa bd 12 3f 3e bd
       -0.13886812 -0.15456459 -0.08342235 -0.046446867

conv_layers.3.bias f4 [20]
000000 26 bc 7f bd e9 79 5a ba 3a b3 58 3b a1 0a 09 3d
       -0.06243529 -0.0008334206 0.0033065812 0.033457402
000010 6f 46 84 3d a1 59 cc 3c e4 5b cf bc 31 00 6a 3d
       0.06458747 0.024945082 -0.025312372 0.05712909
000020 2d 2e 3d bd 23 17 11 3c 86 59 c9 3c 4b 3a d2 b9
       -0.046186615 0.008855614 0.02457882 -0.00040097753
000030 26 14 0b 3e 74 1b 20 bd b8 82 83 3d 5f 23 cc 3c
       0.13581905 -0.03908868 0.06421417 0.02491921
000040 37 c0 5d 3c 98 9b d0 3b a7 d6 1c bc b7 b6 e0 3c
       0.013534597 0.0063662045 -0.0095726615 0.027430875

fc_layers.0.weight f4 [50, 320]
000000 ce 3f 1c 3d b1 5e c4 3c 1f a5 26 bb d6 ae 16 3d
       0.038146786 0.023970934 -0.002542801 0.03678783
000010 e2 47 5e bd 58 61 4d 3d 53 d3 d8 bb 15 a8 18 3d
       -0.05426777 0.050141662 -0.0066169887 0.03726967
000020 04 a1 22 bd db f6 3d 3d ba d9 40 bd 9b f8 1f 3c
       -0.039704338 0.046377998 -0.04708264 0.009763862
000030 68 05 33 bd d0 df 1a bd 9c b3 29 bc 03 68 26 3d
       -0.043706328 -0.0378111 -0.010357764 0.040626537
000040 a0 45 bc 3c 11 14 85 3d 11 43 d8 3c 5b e2 a7 3b
       0.022982419 0.06497968 0.026399167 0.005123419
000050 98 8b 13 3d af 1f 22 bd fc 5c 95 bc d1 b2 20 bd
       0.0360218 -0.039580997 -0.018232815 -0.039233033
000060 86 d2 09 3d 9d 11 25 3d 08 1e 5f 3c 5b 3c 0c ba
       0.033648036 0.0403 0.013618 -0.000534957
000070 8f 0d 14 3d c7 c6 38 bd 73 c0 07 bc ad 74 d8 3c
       0.036145743 -0.045111444 -0.00828563 0.026422823
000080 42 c6 14 bc 31 a6 2c ba ce fe 26 bc ea 66 2b 3d
       -0.0090804715 -0.0006586044 -0.010192586 0.041846193
000090 e6 13 9e 3c 1b e5 03 3c 93 d2 15 3d 98 e9 26 3d
       0.019296598 0.0080502285 0.036577772 0.040750116
0000a0 26 0d e4 bc 26 a7 4b bd df 48 c8 bc e7 62 c5 bb
       -0.0278383 -0.049719952 -0.02444881 -0.006023753
0000b0 ce 82 11 bd ee 1e 64 3c e4 21 3f 3d 06 e6 c2 3c
       -0.035525136 0.01392339 0.04666318 0.023791324
0000c0 1a 7d 65 3d 1c 82 99 3c 6d 0b 1d 3d a7 21 f0 ba
       0.05602751 0.018738799 0.038340975 -0.0018320576
0000d0 8f 78 00 bd c2 14 44 bd 10 c9 73 3c ac 7a a0 3c
       -0.031364974 -0.04787136 0.01487948 0.019589745
0000e0 dd 2b 48 bd 38 cd b3 3c 1c 24 4d 3d 8b f7 3d bd
       -0.048869956 0.021948442 0.050083265 -0.046378653
0000f0 0a d2 ce 3b dc 1b 8a 3d c4 98 3b 3b 66 19 09 bd
       0.0063116597 0.06743595 0.002862499 -0.033471487
000100 dc 7f 3d bd 8c f9 4e bd 0b 7b 1e bd 07 cc 44 bc
       -0.046264514 -0.050530955 -0.03869156 -0.012011535
000110 5e 00 aa bc ce 0d fe 3b 5f d3 36 3d 5b 23 fa ba
       -0.020752128 0.0077531105 0.044635173 -0.0019084023
000120 a3 11 40 3d 7b f0 7a bd 49 e5 ce bc be 56 1e 3d
       0.04689182 -0.061264496 -0.025255816 0.038656943
000130 82 ae d9 3b e8 3b de bd 06 1c 88 3d fc 84 bf 3d
       0.0066431174 -0.1085127 0.0664597 0.09351537
000140 25 ac d5 bc 63 f7 05 bd 3d 0c 64 3d 36 29 72 3d
       -0.026083061 -0.03270663 0.055675734 0.059121333
000150 01 da 15 3d 21 54 bf 3c 3f 3d 78 bd 9d 77 71 bd
       0.036584858 0.023355545 -0.060605284 -0.058951963
000160 fe e9 42 3d 84 1f 65 b8 e9 02 fa 3c e3 b7 23 3d
       0.047586434 -5.4627206e-05 0.030518966 0.03997029
000170 b2 9e c4 bc f8 9a 8b 3c 09 60 8c 3c 9e d4 02 bd
       -0.024001453 0.017041668 0.017135637 -0.03194105
000180 d0 61 3f bc 0b 42 03 3d d0 7c 76 bc 9c a6 37 ba
       -0.011681035 0.032045405 -0.015044406 -0.0007005723
000190 7e b8 0d bd 84 c4 9c 3c 0b d4 82 3b 30 4c 3d 3d
       -0.034599774 0.019136675 0.0039925626 0.046215236
0001a0 d5 73 03 3d 03 33 7d bb 9c f5 9d 3d 1c 1f 3f 3d
       0.032092888 -0.0038635142 0.07712862 0.046660528
0001b0 9d 0f 06 3d da 98 9b 3d cb b8 f7 3c 01 e6 83 bc
       0.032729734 0.075975135 0.030239483 -0.016100885
0001c0 3c 76 36 bd d3 4e 17 3d ad 1e 23 bd 9c dc 25 3d
       -0.04454635 0.036940407 -0.039824177 0.040493593
0001d0 4e ec 01 3d bf a3 04 3d 95 a5 bc bc a3 ee 48 3c
       0.0317195 0.032382723 -0.023028174 0.012263927
0001e0 2b 0f 43 3d 32 7d 7c bc 38 7c 5c bc bd 2d 52 3d
       0.047621887 -0.015410708 -0.01345735 0.05131315
0001f0 7d cd fb 3c ac 0a 8a 3c 4d c9 a1 bc d4 db 4b 3c
       0.030737633 0.016850792 -0.019749308 0.012442548
000200 c9 ca 2b bc 9f 33 9d 3c 8d 6c 3a bd a5 bc dc 3c
       -0.0104853595 0.019189654 -0.04551368 0.026945421
000210 32 eb 7e bd 53 f0 14 3d a0 d9 35 3d 91 31 6d bd
       -0.06223602 0.036362004 0.044396996 -0.0579086
000220 30 56 70 3d b3 c4 a9 3c be b6 51 bd 38 c8 c6 3c
       0.058675945 0.020723676 -0.051199667 0.024265394
000230 c0 76 0e bd d9 ea 88 bd 68 ee 2e bc 5a cf 28 3d
       -0.034781218 -0.06685419 -0.010676958 0.04121337
000240 80 1d 16 3d af b8 92 3c dd f9 ee bc 3f 55 1c 3d
       0.036649227 0.01791033 -0.029171878 0.038167235
000250 c2 de 60 3c b9 67 45 3c bc bc c2 3c 88 af b8 bc
       0.013724985 0.012048655 0.023771636 -0.022544637
000260 2b 49 45 bd f3 da ad 3b 94 b3 25 bc e5 54 53 bd
       -0.04816548 0.005305642 -0.010113616 -0.051594634
000270 2f 98 4c bd 99 22 be bc b3 01 b2 bc 49 cd 8c bc
       -0.04994982 -0.023209857 -0.021729326 -0.017187731
000280 bf db 13 3d 9a 28 5d 3d cf 85 c2 3c 41 f0 3c bd
       0.036098238 0.0539938 0.023745446 -0.04612756
000290 c5 9e 28 3d c0 53 51 3d 0e 45 ef 3c 5f 7c b5 bc
       0.04116704 0.05110526 0.029207733 -0.022154031
0002a0 a2 81 11 bd 53 c3 32 bd 92 aa d2 bb ee 60 5d 3d
       -0.035524018 -0.043643307 -0.006429025 0.054047517
0002b0 54 87 9d bc db 56 24 bd e5 cc 32 3d ea b8 bc 3c
       -0.019229569 -0.040121894 0.043652434 0.023037393
0002c0 db ff 89 3b 38 4d 39 3d f7 92 e8 bc cb 5b 13 3d
       0.0042114086 0.045239657 -0.02839039 0.035976212
0002d0 e7 6f 76 3d f3 8b 25 3d 75 17 c7 3a 3d e2 4e bd
       0.060165312 0.04041667 0.0015189486 -0.050508726
0002e0 76 7b da bc 44 56 cc bd a6 e8 2c bc 9b 86 ba 3b
       -0.026670199 -0.09977391 -0.010553515 0.0056923158
0002f0 0b 1f 6c bd 75 10 5e 3d bf 6c 89 bb 35 9b c0 ba
       -0.057646792 0.054214913 -0.0041938717 -0.0014694693
000300 45 02 ba 3c 52 4e 6c bc 7f dc 10 bd 1c ca 0e bd
       0.02270616 -0.01442297 -0.03536653 -0.034860715
000310 e2 69 60 3d 9d f6 93 bc f4 c9 c7 bc ce 79 5c 3d
       0.054788478 -0.01806193 -0.024388291 0.0538271
000320 05 10 93 bc 58 f7 6f bd b8 75 a9 3d fb e6 fc 3c
       -0.017951975 -0.058585495 0.08274406 0.030871859
000330 64 56 b2 bd 1b 05 55 3b 39 58 63 bc d1 00 5e bd
       -0.08707884 0.0032504264 -0.013876014 -0.054199997
000340 b0 a0 c2 bc 52 00 8a 3d a4 9d 31 3d db cb 57 3b
       -0.023758262 0.06738342 0.04336323 0.0032927904
000350 7d 9f f7 3d aa 1e 71 3d 3f c6 25 bc fa 53 65 bc
       0.12090967 0.058867134 -0.010118066 -0.013997072
000360 e2 3a 09 bd d2 cd 24 bd be 1a 21 bd 48 aa 03 bd
       -0.03350342 -0.040235348 -0.039332144 -0.032144815
000370 e5 b1 c7 bd 47 b3 66 3b 3a 64 0c 3d 36 fc 9e bd
       -0.097507276 0.0035202072 0.03427527 -0.07762949
000380 fe 96 27 3c ef df 02 bd 72 ca 9d 3d 48 4d a9 3c
       0.01022887 -0.03195184 0.07704629 0.020666733
000390 ef 75 18 bc 98 f8 9b 3d 5c dc 98 3d c2 2c d8 3c
       -0.009305461 0.07615775 0.07463905 0.02638853
0003a0 2d a4 c2 3c 6f b8 b4 3c bb 89 3b bd 87 14 16 3c
       0.023759926 0.022060601 -0.045785647 0.009160168
0003b0 d3 6e 0d 3c d0 14 75 bc d6 d8 0c 3d 3f d3 0d 3d
       0.00863238 -0.014958575 0.03438648 0.034625288
0003c0 23 e1 1f 3d 77 68 f1 3c 27 99 6b bc a8 e3 8e bc
       0.039033066 0.029468758 -0.014379776 -0.01744254
0003d0 01 e4 2a bd bd aa ec bc ec 61 0c bd 7b e9 1a bd
       -0.041721348 -0.028890008 -0.034273073 -0.03782032
0003e0 50 a0 cd 3c 52 fd e7 3c 2a f8 84 3d c5 30 8f 3d
       0.025100857 0.028319035 0.06492646 0.06991724
0003f0 64 57 68 3c c9 7b ab bc d4 39 bd bc 0f b9 f7 3c
       0.014180992 -0.020933049 -0.023098864 0.03023961

fc_layers.0.bias f4 [50]
000000 4b 3a ab bc 28 9b ef 3c 69 c7 83 3c 75 e3 90 bc
       -0.02090182 0.029248789 0.016086297 -0.017686585
000010 37 74 15 3d fe 82 a2 bc 5b e0 99 3b 6b 24 44 3d
       0.036487784 -0.019837853 0.0046959347 0.047886293
000020 87 6c 35 3d 8d b8 23 bd f9 94 2e bb 8e f8 83 3d
       0.044292953 -0.039970923 -0.0026639088 0.064438924
000030 d6 36 47 3d bb 52 88 bb 3e 92 ec 3c 3d 52 60 bc
       0.04863628 -0.004160253 0.028878327 -0.013691482
000040 51 18 92 bc c1 bf dd 3c 8e e3 19 bd 3a 3e 1e bb
       -0.01783386 0.027068974 -0.03757053 -0.0024145977
000050 0d 81 ef 3c ea f3 32 bd 71 f9 48 bd d9 cf 21 3c
       0.02923634 -0.043689646 -0.04906601 0.009876215
000060 e2 eb 0f 3d 5d 73 1a 3d c8 e7 5e 3d 1a 82 05 3d
       0.035137065 0.037707675 0.054420263 0.032594778
000070 cf 2e 73 bd 20 0f 17 bd 6a d0 47 3d f7 60 30 3d
       -0.059370812 -0.03687966 0.048782744 0.043061223
000080 a2 b3 24 3c 66 24 87 b9 c4 18 a4 ba c6 c4 12 3c
       0.010052593 -0.00025776325 -0.0012519588 0.008958047
000090 5d 76 e0 bc 25 5a b9 ba 93 b1 0a 3d 02 5e f7 3c
       -0.02740019 -0.0014141245 0.033860754 0.030196194
0000a0 f6 27 99 b9 7f fe 1e bd 4c 4d 83 bc 65 ca 04 bd
       -0.00029212207 -0.038816925 -0.016028069 -0.03241958
0000b0 45 c5 b3 3c 2c e5 b8 3c 6e 61 c9 bc 5e ea a2 3c
       0.021944651 0.022570215 -0.02458259 0.019887146
0000c0 a8 6b 01 3d 75 ef ef 3b
       0.03159681 0.0073222467

fc_layers.3.weight f4 [10, 50]
000000 ed c8 61 be 4e 12 d5 3d a9 0e 52 be 79 96 0c 3e
       -0.22049303 0.10403882 -0.20513405 0.13729276
000010 56 9d ea bd 8f 8e 93 be 3d c6 4d 3d 06 da 76 3e
       -0.11455791 -0.288197 0.050237883 0.24106607
000020 1e c3 c4 3d aa 01 be bd 2d 8b c1 bb 81 f6 1d be
       0.09607528 -0.09277661 -0.0059064836 -0.15426065
000030 85 f6 3d 3e a5 cc 07 3e 6a 59 64 be 49 6c 71 bd
       0.18551071 0.1326166 -0.22299734 -0.05894116
000040 be 06 46 bc 0f c1 92 3d 11 e9 1c 3e 4a 1a 86 3d
       -0.012086568 0.07165729 0.15323283 0.06547983
000050 fc 78 1c 3e 63 f9 d5 bd 2d 60 56 bd 3d 69 a5 3e
       0.15280527 -0.10447957 -0.052337814 0.32306853
000060 f2 05 a1 3d 27 dd 9d bd 72 8b 5e be cc ef e3 bd
       0.07862462 -0.07708197 -0.21732882 -0.11129722
000070 1e 45 55 be 12 5e 00 be 86 4f 04 be 68 ed 5f be
       -0.20827147 -0.12535885 -0.12920961 -0.21867907
000080 30 7a 32 bb d0 d0 04 3d da f7 79 3b c9 36 27 3e
       -0.0027233474 0.0324257 0.0038142116 0.16329493
000090 3c 66 9d 3d ab ba dd 3d 71 79 e1 bd a2 4a 34 3e
       0.07685515 0.1082662 -0.11009491 0.17606595
0000a0 5c 99 5e bd eb 67 1e 3e b0 c3 22 3d 43 c2 6e bd
       -0.054345474 0.15469329 0.039737403 -0.05829073
0000b0 cf ac 4f be b6 e0 3e be 79 fc 58 be 6b 77 d5 3d
       -0.20280765 -0.18640408 -0.2119006 0.10423168
0000c0 2e 4d 06 3e 6a 63 c8 3d 79 e6 3e 3e 4a fc 5c be
       0.13115379 0.09784587 0.18642606 -0.21580616
0000d0 08 7d 09 3e dc 60 74 3d 52 7d 37 3e da d2 4f be
       0.13426602 0.059662685 0.179189 -0.20295277
0000e0 be 81 2d 3e f5 ed d2 3c 64 16 3e 3d a7 75 cf bc
       0.16944024 0.025748232 0.046408072 -0.025324656
0000f0 30 68 b3 bd 2b 7f 3c 3e 37 d9 c1 bd e0 f2 75 bd
       -0.087601066 0.18407886 -0.094652586 -0.060046077
000100 23 8b 3c 3e ba 50 02 3e eb bf cd bd e2 7f 8f 3d
       0.18412451 0.12726107 -0.10046371 0.070068136
000110 da 30 9a bd a8 39 23 3e bd f7 2d be 09 74 5a bd
       -0.07528849 0.15939963 -0.16989036 -0.053333316
000120 06 4b 58 3d b6 d3 8b bd 1b 75 0a 3e 5f 14 4c 3c
       0.052805923 -0.0682749 0.13521235 0.012456029
000130 44 6b 12 3e 0b 8c 31 3e 22 9f 1c be 0d 4c 00 be
       0.14298731 0.17338578 -0.1529508 -0.12529011
000140 ab bf 59 3d d8 20 94 3c a3 c5 0a 3e 95 f4 36 be
       0.053161304 0.018082067 0.13551955 -0.17866738
000150 86 e4 9d bd 7a 2a 34 be 5c 02 70 bd c0 d8 0d 3e
       -0.07709603 -0.17594329 -0.058596 0.13852215
000160 a7 66 79 3e 08 ca ce bc 3e 43 b5 3d f0 ac 3a be
       0.24355565 -0.02524282 0.08850716 -0.18230033
000170 a9 f6 2b be 55 73 7f 3e 21 02 3a 3e 79 e8 bc 3d
       -0.16793312 0.2494634 0.18164875 0.09224028
000180 aa 6c b7 bd 2d bd 4e be 99 a9 28 be aa 5e 15 be
       -0.08956273 -0.20189352 -0.16470946 -0.14586893
000190 14 98 3b 3e 36 65 a6 bb b5 60 d4 3d 3c fd 5b bd
       0.18319732 -0.0050779833 0.10370008 -0.0537083
0001a0 46 2d 21 3d 63 0d 49 bd 80 88 12 3e 8b 98 a3 3d
       0.039349817 -0.049085032 0.14309883 0.0798808
0001b0 3a b2 00 3e 80 ac 29 be c3 7b 15 3e 41 db b5 bd
       0.12567988 -0.1656971 0.14597993 -0.0887971
0001c0 3e d0 b7 3d 3a 0b 03 3e fa e3 3c be 23 38 b7 3d
       0.08975266 0.12797251 -0.18446341 0.08946254
0001d0 39 09 32 be f5 cc 21 3e 18 99 ca 3d e8 9f 0c be
       -0.1738633 0.15800841 0.098924816 -0.13732874
0001e0 23 18 0f 3e 11 89 9d bd 33 98 ee bc bb 53 3f 39
       0.13974051 -0.07692159 -0.029125309 0.00018246371
0001f0 ee 6e 8e 3d ae 11 70 3e b2 cc 2f 3e 9e 93 56 bd
       0.06954752 0.23444244 0.17167929 -0.052386872
000200 cc f7 54 be 27 7c cf 3d 73 02 72 be 3f 39 b8 3d
       -0.20797652 0.10131102 -0.23633747 0.08995294
000210 e1 8d 39 be e4 dc 07 3e cc a8 2f 3d 5f 4d 60 3d
       -0.18120529 0.13267857 0.042885587 0.054761287
000220 5e 12 46 3e f1 67 f4 3d a4 2b cf bd e9 18 ee bd
       0.19342944 0.11933888 -0.10115746 -0.11625845
000230 80 db 07 be aa bf 33 be 4b b9 05 3e b3 fe 1b 3e
       -0.13267326 -0.17553583 0.13058965 0.15233879
000240 7f 6f 8a 3d c9 80 8c bd 16 0a 05 be f7 44 4f be
       0.067595474 -0.06860501 -0.12992129 -0.20241152
000250 53 41 a8 3d 6d 6b 24 be e0 09 ab 3d c6 b3 74 3d
       0.082155846 -0.16056605 0.08351493 0.059741758
000260 b8 7e f1 bd 4b b9 ad 3d ca c0 94 bc c6 58 b0 3d
       -0.11791748 0.084826075 -0.018158335 0.08610682
000270 66 07 0e be 8d 21 31 be 26 58 55 3c 1d 27 3c be
       -0.1387001 -0.17297955 0.0130215045 -0.18374296
000280 7e fb 25 3e e7 20 c0 3d b9 77 c8 bd f9 ba 4f bd
       0.16209218 0.093812756 -0.0978846 -0.05071542
000290 7c 21 16 3e 95 fc ec 3d c8 0d 09 be e9 6b 21 3e
       0.14661211 0.11571614 -0.13384163 0.1576382
0002a0 08 56 b4 bd fa 14 e3 3d 54 d0 ec 3d 08 79 15 3d
       -0.08805472 0.11087985 0.11563173 0.036492378
0002b0 f4 5e b8 3d f8 b8 68 bd be e6 85 3d 62 80 e8 bd
       0.09002486 -0.056817025 0.06538151 -0.11352612
0002c0 cb e5 23 3e 08 6d 0e be e3 29 88 3d f3 6a d9 3d
       0.16005628 -0.1390878 0.06648614 0.10616102
0002d0 ad bf 36 be 5e a0 18 be fe de 11 be c4 03 a3 bd
       -0.17846556 -0.14904925 -0.14245221 -0.079597026
0002e0 ff 3e c4 3d ab 20 31 bd 29 dc 46 3e 26 d6 83 bd
       0.09582328 -0.043244045 0.19419922 -0.0643733
0002f0 02 8a 30 be 63 a0 81 3d 33 88 d1 3c 23 ae 36 be
       -0.17240146 0.063294195 0.02557764 -0.17839865
000300 88 ce fb bd 60 d0 7b 3e 51 ce 24 be cc 91 1c be
       -0.12295252 0.24591208 -0.16094328 -0.15289992
000310 ec 76 d2 bd 0f ca 14 be 30 af 04 3e 15 e0 c8 3d
       -0.10276589 -0.14530204 0.12957454 0.09808365
000320 e1 b0 94 3c 7d be f4 bd 30 84 c7 bd 51 5c d6 3d
       0.018150749 -0.11950395 -0.0974201 0.10466827
000330 7e 2b 8a 3e a6 8f a3 3d 9f 05 29 be c8 09 bd 3d
       0.26986307 0.07986383 -0.1650605 0.09230381
000340 8a 6f 54 be 6b 67 4a 3e 9b 3f 54 be ae ca d6 bd
       -0.20745674 0.19766013 -0.20727389 -0.10487877
000350 47 b9 fe bd a6 cc 7b bd 74 0d c1 bd 64 11 24 be
       -0.124376826 -0.061474465 -0.09426394 -0.16022259
000360 de eb 39 3e 16 43 07 be ce fe 0e be d6 6e af bd
       0.18156382 -0.13209185 -0.13964388 -0.08566062
000370 61 29 85 be 25 ce 76 3d 4c a6 ac bd 30 91 1c 3d
       -0.26008132 0.06025519 -0.08430156 0.0382244
000380 3b 47 0b be 28 c4 bf 3d a5 3c 40 bc b5 22 d7 bd
       -0.13601391 0.09363586 -0.011733209 -0.10504667
000390 2e 06 95 3d f0 67 4f bd d7 bd f0 3d 5f 16 1e 3e
       0.07276569 -0.050636232 0.11754959 0.15438221
0003a0 80 13 b4 3d ac f9 ca 3d c0 95 d2 b9 9f 77 33 3e
       0.08792782 0.099109024 -0.00040165894 0.175261
0003b0 fd 54 cf bd bd 59 fa bb 07 cb 25 bd bc c4 0c be
       -0.10123632 -0.007640092 -0.040476825 -0.13746923
0003c0 95 ba 94 bd d2 1c 9c 3d cd 98 da 3d 67 8f 85 bc
       -0.0726215 0.076226845 0.10673676 -0.016303731
0003d0 ab 8b 27 3e 12 ae 26 3e ac 0b 90 bd 77 81 d2 3d
       0.16361873 0.1627734 -0.07033476 0.102786
0003e0 25 d8 71 be 7a b5 0e be 3a b7 c9 bd 63 93 db 3d
       -0.23617609 -0.13936415 -0.09849401 0.10721471
0003f0 5c c8 de 3d 69 f7 9a 3d 4a 77 9a 3d 30 e4 2f 3d
       0.10878059 0.07566721 0.07542284 0.042942226

fc_layers.3.bias f4 [10]
000000 07 12 2d 3d 0b 04 e8 3b 64 50 c0 bb 3b 5a 2b 3e
       0.04225352 0.00708056 -0.0058689583 0.16733639
000010 b5 3b 1f bd fc fc 0d 3d 01 18 af bd 88 ed b8 bd
       -0.0388753 0.034665093 -0.085495 -0.090296805
000020 56 55 0d 3e bf 4d e4 3d
       0.13802084 0.111476414
